PyTorch/models/pinn.pt (torch, 16526 bytes, 10 tensors)

hidden_layer.0.weight f4 [32, 1]
0	0x3f52eb56	0.82390344
1	0x3f709c21	0.93988234
2	0xbe8f31b7	-0.27967617
3	0x3f7e8d73	0.99434584
4	0xbe861dcf	-0.26194617
5	0x3e83182b	0.25604376
6	0xbf2d9cb1	-0.6781722
7	0x3f39830f	0.72465605
8	0x3f808c84	1.0042882
9	0xbf6e5c64	-0.93109727
10	0x3f66f8e5	0.9022353
11	0x3e3bf8e4	0.18356663
12	0x3f5343be	0.8252524
13	0x3dca8e5c	0.09890434
14	0x3f16e5da	0.58944476
15	0xbe4c3af0	-0.19944358
16	0x3f4da4dc	0.8032968
17	0x3d510710	0.051032126
18	0xbecc5b90	-0.39913607
19	0x3e86b7b3	0.26312026
20	0xbf31a29d	-0.69388753
21	0xbd84bbce	-0.064811334
22	0xbf2b7e6b	-0.66989774
23	0x3f34abe6	0.70574796
24	0xbf60b30e	-0.87773216
25	0xbef732c5	-0.48280922
26	0xbe39dbd2	-0.18150261
27	0xbf432d36	-0.7624086
28	0x3e1058a3	0.14096312
29	0xbf8339f6	-1.0252063
30	0x3f83d3f9	1.0299064
31	0xbf82f7e8	-1.0231905

hidden_layer.0.bias f4 [32]
0	0x3f4bfa19	0.79678494
1	0x3e0319a9	0.12802757
2	0xbea5cd8a	-0.32383376
3	0x3f2aeda0	0.66768837
4	0x3deeeb83	0.11666014
5	0x3f47f7a4	0.78112245
6	0x3cab518f	0.020912914
7	0xbea1d91a	-0.31610948
8	0x3e8855e9	0.26628044
9	0xbe836752	-0.25664765
10	0x3f03cd6d	0.5148533
11	0x3f6b7e2c	0.919894
12	0x3f1c11d9	0.60964733
13	0xbef15ddb	-0.4714192
14	0x3f19d575	0.60091335
15	0x3e09f866	0.13473663
16	0x3f0d5c88	0.55219316
17	0xbf20188b	-0.6253745
18	0xbf891e13	-1.0712303
19	0xbecc7786	-0.3993494
20	0xbf377afd	-0.7167204
21	0x3f4f4791	0.80968577
22	0x3e4e6da4	0.20159012
23	0x3ef2bace	0.47408146
24	0x3eba622a	0.36403018
25	0xbdc8b9ff	-0.09801101
26	0x3f55f032	0.83569634
27	0xbf262cd6	-0.64912164
28	0x3c8c224a	0.017106194
29	0xbf3e7d14	-0.74409604
30	0x3e8e2c1d	0.2776803
31	0xbec9e426	-0.39431876

hidden_layer.2.weight f4 [32, 32]
0	0xbea310f0	-0.3184886
1	0xbd8e4cf6	-0.06948273
2	0x3e95da23	0.29267988
3	0xbe915265	-0.28383175
4	0xbdbfb5cc	-0.09360847
5	0xbe1a8173	-0.15088443
6	0x3e3675b2	0.17818335
7	0x3d773e09	0.060361896
8	0x3dfbcab3	0.12294521
9	0xbdbe3a97	-0.09288519
10	0xbe948396	-0.29006642
11	0xbe31ecac	-0.1737544
12	0xbeaff67e	-0.34367746
13	0x3db0a61f	0.08625435
14	0xbe53964e	-0.20662805
15	0x3e1b3550	0.15157056
16	0xbe8eb2df	-0.27870843
17	0xbdd64742	-0.1046281
18	0x3e216f1a	0.15765038
19	0xbd84abb8	-0.06478065
20	0x3e98ab6e	0.2981829
21	0xbd7dde03	-0.061979305
22	0x3dd6d69a	0.10490151
23	0xbea1be9e	-0.31590742
24	0xbdc4d017	-0.096100025
25	0x3db4cea1	0.08828474
26	0x3ca47abc	0.020078056
27	0x3ea1a3df	0.31570336
28	0x3cc7e1ee	0.024399724
29	0x3eaac4f2	0.33353382
30	0xbe33c0d8	-0.17554033
31	0xbcce4d99	-0.025183486
32	0x3e1e270d	0.15444584
33	0xbdec81fd	-0.11548231
34	0xbcb723c8	-0.022355929
35	0xbe387a8c	-0.18015498
36	0xbd8d199d	-0.06889651
37	0x3c6f19fe	0.014593599
38	0x3ce78267	0.028260423
39	0xbe468ba6	-0.19389209
40	0xbd39abe9	-0.045329962
41	0xbd957162	-0.07297017
42	0xbe3fb9f3	-0.18723278
43	0xbe006c23	-0.12541251
44	0xbe2aa466	-0.16664276
45	0xbdc77d99	-0.09740753
46	0x3e16868f	0.14699768
47	0x3d5ee70e	0.05441957
48	0x3d18075e	0.0371164
49	0xbe15ab16	-0.14616045
50	0xbdb4f636	-0.088360235
51	0xbd87ad3b	-0.06624838
52	0x3d36c7ed	0.044624258
53	0xbe367f9a	-0.17822114
54	0xbca95816	-0.020671885
55	0xbe02b6c9	-0.1276504
56	0x3da86a16	0.08223359
57	0xbcb4a668	-0.022052005
58	0xbcdd159e	-0.026987847
59	0xbdedfdb1	-0.116206534
60	0xbdf49565	-0.11942557
61	0xbdd31329	-0.10306389
62	0xbde11488	-0.10990244
63	0xbdc4bb17	-0.09605997
64	0x3e076cb1	0.13225056
65	0xbd98af30	-0.07455289
66	0x3e7a059b	0.24416201
67	0x3d0528cd	0.032509614
68	0xbe1e339a	-0.15449372
69	0x3d80bd2d	0.062860824
70	0xbce0252e	-0.027361479
71	0xbdad3ff8	-0.08459467
72	0xbe41f0f6	-0.18939576
73	0xbe093451	-0.13398863
74	0xbb35785f	-0.0027690155
75	0xbdc1d6df	-0.094648115
76	0x3cc246fc	0.023715489
77	0xbdd3491b	-0.10316678
78	0x3d7e3300	0.062060356
79	0xbe179924	-0.14804512
80	0xbdc8e451	-0.09809173
81	0x3da91c58	0.08257359
82	0x3e11e228	0.14246428
83	0x3e290b1b	0.16508143
84	0x3e5fbb84	0.21848875
85	0xbe4264f3	-0.18983822
86	0x3d55dea3	0.052214276
87	0xbe1bec57	-0.15226875
88	0x3bd44667	0.006478119
89	0xbdd3235e	-0.1030948
90	0x3df6afcc	0.12045249
91	0xbdb5f513	-0.08884635
92	0x3d1dfa4c	0.03856878
93	0x3d8f2bc8	0.069907725
94	0x3c58528c	0.013203274
95	0xbd4b3e7d	-0.04962014
96	0xbeccf37c	-0.40029514
97	0x3b460e7d	0.0030221038
98	0x3e765110	0.2405436
99	0xbea51ab0	-0.32246923
100	0x3d93ad5e	0.072108015
101	0xbdff0bf1	-0.124534495
102	0xbd7e16fa	-0.06203363
103	0x3e28f63d	0.16500182
104	0xbc2f8266	-0.010712242
105	0xbd18761d	-0.037222017
106	0xbe498f5f	-0.19683598
107	0xbdc6c0b5	-0.09704725
108	0xbe041221	-0.1289754
109	0x3c11d07b	0.008899803
110	0xbf058bfb	-0.5216672
111	0xbd9e7c14	-0.0773851
112	0xbe9ecfe8	-0.31017995
113	0x3df7b471	0.12094963
114	0x3e7d2f14	0.2472499
115	0xbe058236	-0.13037953
116	0x3eba5485	0.36392608
117	0x3cccff56	0.025024097
118	0x3ca34ce1	0.01993412
119	0xbe6d284d	-0.23159905
120	0x3da1ce80	0.07900715
121	0x3e08384a	0.13302723
122	0x3c01125c	0.007877912
123	0x3eb4c2f5	0.3530499
124	0xbe007f6d	-0.12548609
125	0x3e62e123	0.22156195
126	0xbda57369	-0.08078653
127	0x3c8602de	0.016358789
128	0x3e0539c6	0.1301032
129	0x3e010eb9	0.12603272
130	0x3d065b25	0.032801766
131	0xbcff945f	-0.031198679
132	0xbc6674b8	-0.014065914
133	0xbd461b3a	-0.04836581
134	0x3d43e37f	0.04782438
135	0x3d40b6b9	0.047049258
136	0xbe3a3b3a	-0.18186656
137	0xbd527537	-0.051381316
138	0x3e1d065e	0.1533446
139	0x3d002828	0.031288296
140	0x3c57e9f5	0.013178338
141	0xbd96e799	-0.073683925
142	0xbdf62827	-0.12019377
143	0xbe3a36de	-0.18184993
144	0xbd22f9d0	-0.03978902
145	0x3dc162f0	0.09442699
146	0x3e0e91be	0.13922784
147	0x3dd742e6	0.10510807
148	0xbe0cbe94	-0.13744575
149	0xbe1281d7	-0.14307342
150	0xbd0800f7	-0.033204045
151	0x3e3edefb	0.18639748
152	0x3d123903	0.0356989
153	0xbccd9123	-0.02509362
154	0x3d2b803f	0.041870352
155	0xbd93761e	-0.072002634
156	0xbe23f68b	-0.16012017
157	0x3de7b0aa	0.11312993
158	0xbdd4e027	-0.10394316
159	0xbcc3e197	-0.02391128
160	0xbe51ed8a	-0.2050077
161	0x3e38e417	0.1805576
162	0x3db18ff6	0.086700365
163	0x3d8a58d7	0.06755226
164	0xbe1d6df8	-0.15373981
165	0xbe14e5fe	-0.1454086
166	0xbe459ced	-0.19298144
167	0x3e38275f	0.17983769
168	0x3e16faa2	0.14744046
169	0x3dac1809	0.08403022
170	0x3e1d12bb	0.15339176
171	0x3d920476	0.07129757
172	0x3cc63048	0.024192944
173	0xbe099fe1	-0.13439895
174	0xbded5e08	-0.11590201
175	0xbe40cc03	-0.18827824
176	0x3e02e5e4	0.12783009
177	0xbdbcc1cf	-0.092166536
178	0xbd58f834	-0.05297108
179	0xbda63271	-0.0811509
180	0xbd40536f	-0.04695457
181	0xbddb0f2f	-0.106962554
182	0xbe2106c5	-0.15725239
183	0x3dff652d	0.124704696
184	0xbdddace2	-0.108239904
185	0x3d678493	0.056522917
186	0xbd7bafde	-0.061447017
187	0xbe0c7161	-0.13715126
188	0x3d246bc3	0.040141832
189	0xbd9b3682	-0.07578756
190	0x3c0b5649	0.008504459
191	0xbe6e3654	-0.23262912
192	0x3e107ab9	0.14109315
193	0xbe1eedbc	-0.15520376
194	0x3e0aa366	0.13538894
195	0x3df12ee2	0.1177652
196	0x3e1084cd	0.1411316
197	0xbe31aa35	-0.17350085
198	0x3e1fceb0	0.15606189
199	0xbdf1d6d0	-0.1180855
200	0x3d123ace	0.03570061
201	0x3e49a771	0.1969278
202	0xbd661f26	-0.05618205
203	0xbd1aa5af	-0.037755664
204	0xbd04cd90	-0.032422602
205	0xbe00e3fb	-0.12586968
206	0x3d7337c4	0.059379354
207	0xbe29ebc6	-0.16593847
208	0x3db8ef5d	0.0903003
209	0x3e233ada	0.15940419
210	0x3e486076	0.19568047
211	0xbd549970	-0.051904142
212	0xbe02eecf	-0.12786411
213	0x3be93fe9	0.0071182144
214	0x3dfb5615	0.12272278
215	0xbe593540	-0.2121172
216	0x3a9cb996	0.0011957164
217	0xbd9affeb	-0.07568344
218	0xbcf6dff9	-0.030136095
219	0xbdb524cf	-0.08844911
220	0xbdda8e87	-0.10671716
221	0xbdd5385a	-0.10411139
222	0xbe4a3991	-0.19748522
223	0x3e3355cb	0.17513196
224	0xbd7ddf49	-0.06198052
225	0xbd891c84	-0.06694892
226	0x3d5ee639	0.054418776
227	0xbe561489	-0.20906271
228	0xbe2726a6	-0.16323337
229	0xbe55dd72	-0.20885256
230	0x3d92e016	0.07171647
231	0xbd9a7b5e	-0.07543062
232	0xbe3becf7	-0.18352114
233	0x3d785d06	0.06063559
234	0xbe2b170b	-0.16708009
235	0xbdbb8a8b	-0.09157284
236	0xbe1b7909	-0.1518289
237	0xbc60b37f	-0.01371467
238	0xbe56af05	-0.20965202
239	0xbdc1c8e6	-0.094621465
240	0xbe909478	-0.28238273
241	0x3e2fdc14	0.17173797
242	0xbcc051bf	-0.02347648
243	0x3d894973	0.067034625
244	0x3cf49100	0.029854298
245	0xbc3f1713	-0.011663216
246	0x3e193bf8	0.14964283
247	0xbd49f3c4	-0.04930474
248	0xbe3a4e72	-0.18193987
249	0x3dc7dcf2	0.09758939
250	0x3e10ee23	0.14153342
251	0x3e84a5a4	0.25907624
252	0x3d80396a	0.06260951
253	0x3ea8f22b	0.3299726
254	0xbdcac086	-0.09900002
255	0x3dff62c4	0.1247001

hidden_layer.2.bias f4 [32]
0	0xbdeace21	-0.11465097
1	0xbe4dab2c	-0.20084828
2	0x3c571cc0	0.013129413
3	0x3cd90060	0.026489437
4	0xbe43678a	-0.19082466
5	0x3db361cd	0.087588884
6	0x3de7921a	0.113071635
7	0xbc8779f5	-0.016537646
8	0xbd3ae4ce	-0.04562836
9	0x3da99b8e	0.08281623
10	0x3dfcf497	0.12351339
11	0x3d6bf3c0	0.057605505
12	0xbdbbe6e3	-0.091748975
13	0x3e166542	0.14687064
14	0xbdaefd86	-0.085444495
15	0x3defe008	0.117126524
16	0xbd077edb	-0.033079963
17	0x3e078bfb	0.13236992
18	0x3c94cf27	0.018165184
19	0x3afe29a9	0.0019391078
20	0x3c403166	0.0117305275
21	0x3b357ffb	0.002769469
22	0xbcf1b5f2	-0.029505704
23	0xbe46e7a5	-0.19424303
24	0xbd408b7e	-0.04700803
25	0x3ded74b9	0.11594529
26	0xbdb4e86a	-0.08833392
27	0x3dea7889	0.114487715
28	0xbde03a24	-0.109485894
29	0x3dfd81dd	0.12378285
30	0x3e21e5ef	0.15810369
31	0x3d390643	0.045171987

hidden_layer.4.weight f4 [32, 32]
0	0x3d2bf001	0.041976932
1	0xbd4f0fc5	-0.05055215
2	0xbc31735e	-0.010830728
3	0x3d5a0107	0.053223636
4	0x3de3f316	0.11130349
5	0xbe883bad	-0.2660803
6	0x3e272565	0.16322859
7	0x3ee280ad	0.44238797
8	0x3d9d766d	0.076886036
9	0xbcc78ec8	-0.024360076
10	0xbe77dd00	-0.24205399
11	0x3e1bc636	0.1521233
12	0x3d7dd0a5	0.061966557
13	0xbebcc004	-0.36865246
14	0x3e87f4d8	0.26553988
15	0xbe23f32e	-0.16010734
16	0xbe61da73	-0.22055988
17	0x3e775cbb	0.24156468
18	0xbecdf97a	-0.40229398
19	0xbe2ea8f3	-0.17056637
20	0xbdc53a8a	-0.09630306
21	0xbd0c1851	-0.034202877
22	0xbd1180e4	-0.03552331
23	0xbe59ebee	-0.21281406
24	0xbe934d7c	-0.28770053
25	0xbe1fad86	-0.15593538
26	0x3e39c214	0.18140441
27	0xbe06d2c3	-0.13166337
28	0x3d6237c3	0.05522896
29	0x3defb087	0.11703592
30	0xbdf00660	-0.11719966
31	0x3e87784c	0.26458967
32	0x3dd75ba7	0.10515528
33	0xbcc487bb	-0.023990503
34	0xbdf6c7e4	-0.12049845
35	0x3d393016	0.045211874
36	0x3e20ab8e	0.15690443
37	0x3e1faf1e	0.15594146
38	0xbe3da00f	-0.18518089
39	0x3e5de78c	0.2167036
40	0x3d0a1c91	0.03371865
41	0x3df19ecd	0.11797867
42	0x3e168e36	0.14702687
43	0x3e3dec0b	0.18547074
44	0xbe484fd5	-0.19561704
45	0x3dd40035	0.10351602
46	0xbdfe067b	-0.1240358
47	0x3d150db5	0.036390025
48	0xbdc28a21	-0.09499002
49	0xbcfc0537	-0.030764205
50	0xbd5dd073	-0.05415387
51	0xbd5e87d8	-0.05432877
52	0xbbae2e59	-0.0053155837
53	0x3c50d6a8	0.012746491
54	0x3e47051b	0.19435541
55	0x3e1a1787	0.15048037
56	0x3d8f46fd	0.06995962
57	0x3dfec0ad	0.12439094
58	0x3e45af5d	0.19305177
59	0xbc8f9a8d	-0.01752975
60	0x3cb247af	0.021762697
61	0x3d2d991d	0.04238235
62	0xbe1b156e	-0.15144894
63	0xbdb6ed21	-0.089319475
64	0xbb06ca21	-0.0020567256
65	0xbdbb4f89	-0.091460295
66	0xbd2723ad	-0.040805507
67	0xbd877ab6	-0.06615202
68	0x3ca30c79	0.019903408
69	0x3e1d3908	0.15353787
70	0xbde02d39	-0.109461255
71	0x3e2d824b	0.16944234
72	0x3e21149c	0.15730518
73	0xbe4a13f0	-0.19734168
74	0xbe1a5c27	-0.15074216
75	0xbe198e5a	-0.14995709
76	0xbe0d15c5	-0.13777836
77	0xbd6f1bf3	-0.058376264
78	0x3ce006a7	0.027346922
79	0xbca56207	-0.020188345
80	0xbd0b1073	-0.033951234
81	0xbcf59fb7	-0.029983385
82	0xbd9aafc9	-0.075530596
83	0x3e158205	0.1460038
84	0xbc9b35a3	-0.018946474
85	0xbe168f7f	-0.14703177
86	0x3dfc8e52	0.12331833
87	0x3c593164	0.013256405
88	0x3deafbd5	0.114738144
89	0x3e16d6ef	0.14730428
90	0x3e35ad1b	0.17741816
91	0xbdf50583	-0.11963942
92	0x3ddb85d7	0.10718887
93	0x3e062dfb	0.13103478
94	0xbd95101c	-0.07278463
95	0x3e11b523	0.14229254
96	0x3e117cfc	0.14207834
97	0x3c6e4076	0.014541736
98	0x3d820705	0.06348995
99	0xbc9dd7b6	-0.019267898
100	0xbe2e1787	-0.17001162
101	0x3cbee5e6	0.023302983
102	0x3d9f2c94	0.077721745
103	0xbe00f92f	-0.12595056
104	0x3d9111c3	0.07083466
105	0xbe0ff1e2	-0.14057115
106	0x3e1d2113	0.15344648
107	0x3e1b9f5c	0.1519751
108	0x3d9efb43	0.07762768
109	0xbddecff5	-0.108795084
110	0x3dbc6d97	0.0920059
111	0x3c49653f	0.012292205
112	0x3c300085	0.010742311
113	0x3d9649d4	0.073383
114	0x3e0d8432	0.1381996
115	0xbdab32f6	-0.083593294
116	0xbcdb9874	-0.026806094
117	0x3d22722c	0.039659664
118	0x3b839b02	0.004016281
119	0x3df54312	0.11975683
120	0xbd9a833c	-0.07544562
121	0xbd028292	-0.031862803
122	0x3ca67614	0.020319976
123	0xbcf2172b	-0.029552063
124	0x3dd2992e	0.10283123
125	0x3d098ef1	0.033583585
126	0xbe1d3954	-0.153539
127	0xbdd91943	-0.106005214
128	0xbca1ab2a	-0.019734938
129	0x3cdad624	0.026713438
130	0xbd3c4a99	-0.04596958
131	0xbdce9c9b	-0.10088464
132	0xbd88eb39	-0.0668549
133	0xbcdf9fd8	-0.0272979
134	0xbd384a4d	-0.044992734
135	0x3e4f482a	0.20242372
136	0xbd69ae06	-0.057050727
137	0x3e117829	0.14205994
138	0x3cde571b	0.027141144
139	0xbe2c3a43	-0.168191
140	0x3d29babe	0.041437857
141	0x3dee023e	0.116215214
142	0xbd9fb6fb	-0.07798573
143	0xbe0d88a5	-0.13821657
144	0x3ddda03b	0.10821577
145	0x3e2d4c05	0.1692353
146	0xbe1894f5	-0.14900573
147	0x3da3556b	0.079752766
148	0xbd40e0f7	-0.047089543
149	0xbe49cc7b	-0.1970691
150	0x3c1cc017	0.009567282
151	0x3d1c82d4	0.038210705
152	0xbd8fc53c	-0.07020041
153	0x3d43dcb6	0.04781791
154	0xbdd40cb6	-0.10353987
155	0x3e1e0d53	0.1543477
156	0x3df955cd	0.12174568
157	0x3e02aeef	0.12762044
158	0x3d7b4041	0.061340574
159	0x3def95be	0.11698483
160	0xbe06c1fd	-0.13159938
161	0xbd2adf2b	-0.041716736
162	0xbc109e3a	-0.008826787
163	0xbdb720cf	-0.089418046
164	0xbdd91f82	-0.10601713
165	0x3dcc3148	0.09970337
166	0x3e0bb185	0.13641937
167	0xbe390154	-0.18066913
168	0x3d8c88b1	0.06862009
169	0x3cfd9d02	0.030958656
170	0x3e3fe093	0.18738012
171	0x3df468dd	0.119340636
172	0x3e3f9217	0.18708073
173	0xbd7333d2	-0.05937559
174	0x3e012513	0.12611799
175	0x3e0bf916	0.13669237
176	0xbe1722ac	-0.1475932
177	0xbe2f3104	-0.17108542
178	0x3d42ae28	0.04752937
179	0x3dffa5f5	0.12482826
180	0xbdee4838	-0.116348684
181	0x3d32d958	0.043664306
182	0xbd0b6282	-0.03402949
183	0x3d138963	0.036019694
184	0xbdc68137	-0.096926145
185	0x3db02edb	0.08602687
186	0x3ddcad9a	0.10775299
187	0xbe0ff357	-0.1405767
188	0x3ca26472	0.019823287
189	0xbc64b23c	-0.01395851
190	0x3cd3e0eb	0.025864085
191	0x3de7f870	0.113266826
192	0x3fcf9fb4	1.6220613
193	0x3b4456e2	0.0029959013
194	0x3e71ed7e	0.23625752
195	0x3fbc5100	1.4712219
196	0xbd2d00b3	-0.042236995
197	0xba65bab3	-0.0008763477
198	0xbe0ad974	-0.13559514
199	0x3f10b89f	0.5653171
200	0xbf0ace5d	-0.54221135
201	0x3d55b854	0.052177742
202	0x3f3d33a2	0.7390691
203	0x3e06dd83	0.13170438
204	0xbe3f3943	-0.18674187
205	0xbffb8974	-1.9651322
206	0x3d73e027	0.05953994
207	0x3e134ae2	0.14384034
208	0xbf5343b1	-0.82525164
209	0x3d98cb40	0.07460642
210	0xbf2555bc	-0.64583945
211	0x3d77b877	0.060478654
212	0xbe637ae9	-0.22214855
213	0x3e6fd63a	0.23421565
214	0xbfe7ca6e	-1.8108652
215	0x3e20ad4b	0.15691106
216	0xbed08a9e	-0.40730757
217	0x3ce51997	0.027966304
218	0x3f73343b	0.9500157
219	0xbe066ab4	-0.13126642
220	0xbbdc8a20	-0.006730333
221	0x3cba1e74	0.0227196
222	0xbce4a43b	-0.027910342
223	0x3f004175	0.5009988
224	0xbd0cefed	-0.0344085
225	0xbdf5af9e	-0.11996387
226	0xbd1acf45	-0.037795324
227	0x3cab1988	0.020886198
228	0xbdb1af35	-0.08675996
229	0xbd1d65ae	-0.038427047
230	0xbc8ae296	-0.016953748
231	0xbda67dba	-0.08129449
232	0x3db6807a	0.08911224
233	0xbe17b247	-0.14814101
234	0x3e1f8220	0.15576982
235	0x3d1760c4	0.036957517
236	0xbdaf0eed	-0.08547769
237	0x3e1b545f	0.15168904
238	0x3d893884	0.067002326
239	0xbd40a98a	-0.047036685
240	0xbda890e5	-0.082307614
241	0x3c30c4ea	0.0107891355
242	0xbe12df2a	-0.14342943
243	0x3da41755	0.08012263
244	0x3da6cafc	0.08144185
245	0xbde316b7	-0.11088317
246	0xbdd12cf0	-0.10213649
247	0xbe2068ab	-0.15664928
248	0x3e0abca8	0.13548529
249	0x3e2a16f9	0.16610326
250	0xbbc25e6e	-0.005931667
251	0x3ddaad1b	0.106775485
252	0x3b567b47	0.0032727288
253	0xbe5463ae	-0.2074115
254	0xba1ad541	-0.0005906411
255	0x3d3dd150	0.046342194

hidden_layer.4.bias f4 [32]
0	0x3ddb92a7	0.10721331
1	0x3e4f093f	0.20218371
2	0x3d4928a3	0.04911102
3	0xbe2fdb16	-0.17173418
4	0x3e380d50	0.17973828
5	0xbd21775d	-0.039420474
6	0xbd128d0a	-0.035779037
7	0xbe792acb	-0.2433273
8	0xbdcc0aed	-0.099630214
9	0xbe08258c	-0.13295573
10	0x3e2ab41a	0.16670266
11	0x3e1b0348	0.1513797
12	0x3e431889	0.19052328
13	0x3e335d20	0.17515993
14	0xbe36c7d4	-0.17849666
15	0xbe15dd7b	-0.1463527
16	0xbcaaabd3	-0.020833885
17	0xbe001c32	-0.12510756
18	0x3e333fb5	0.17504771
19	0x3c813435	0.015771965
20	0x3e3239d6	0.17404875
21	0x3bf74509	0.0075460714
22	0xbe5cd64a	-0.2156612
23	0xbd453bd7	-0.04815277
24	0x3e3b22b8	0.18274963
25	0x3e041244	0.12897593
26	0x3de76084	0.11297706
27	0xbd3a2967	-0.04544964
28	0xbdc01721	-0.093794115
29	0xbe080b82	-0.1328564
30	0x3e29b288	0.1657201
31	0xbdfde39d	-0.123969294

hidden_layer.6.weight f4 [32, 32]
0	0x3e11beba	0.14232913
1	0x3da07ddb	0.07836505
2	0xbda5d582	-0.08097364
3	0x3df9d440	0.121986866
4	0xbd65877c	-0.05603741
5	0x3b24cf87	0.002514811
6	0xbd9a86b9	-0.075452276
7	0xbe27dd79	-0.16393079
8	0x3d92073b	0.07130285
9	0x3e3ffc01	0.18748476
10	0xbdb430af	-0.08798348
11	0x3db5c853	0.088760994
12	0xbe537c1b	-0.20652811
13	0xbe4efea8	-0.20214331
14	0xbdfda7a3	-0.1238549
15	0xbd727a49	-0.05919865
16	0xbd1f6da4	-0.03892292
17	0xbcee346f	-0.029077737
18	0x3d33e514	0.043919638
19	0xbdf019a5	-0.11723641
20	0xbcc5e8d5	-0.024158875
21	0xbc7c0cc7	-0.015383906
22	0x3da9f3e3	0.08298471
23	0x3e3a794a	0.1821033
24	0x3dcf889d	0.10133479
25	0xbe5fbc38	-0.21849144
26	0xbe4b05b6	-0.19826397
27	0xbd4464cb	-0.047947686
28	0xbdbc21f4	-0.091861635
29	0x3d055fe4	0.03256215
30	0xbc9fc13f	-0.019501327
31	0x3e2681bd	0.16260429
32	0x3dcec07e	0.10095309
33	0x3d2336e5	0.039847273
34	0xbc9ae08f	-0.018905906
35	0x3d9580ad	0.072999336
36	0xbd1cb8ad	-0.038262058
37	0x3e167c72	0.1469591
38	0xbe189159	-0.14899196
39	0x3d4397e7	0.047752287
40	0xbe199e32	-0.15001753
41	0xbd1df731	-0.03856582
42	0xbd962752	-0.073317185
43	0x3dc4f100	0.096162796
44	0x3d1c16ac	0.03810756
45	0x3d61affb	0.05509947
46	0x39671ecd	0.00022041351
47	0x3ce39302	0.02778006
48	0xbe0b0b86	-0.13578615
49	0xbc40d677	-0.011769882
50	0xbcae5017	-0.021278424
51	0x3e56f509	0.20991911
52	0x3dcebb80	0.100943565
53	0xbe26c83f	-0.16287325
54	0x3b9a0fe7	0.0047016027
55	0xbe3c30da	-0.1837801
56	0xbda5d7a8	-0.08097774
57	0xbe27e54b	-0.16396062
58	0x3d8bcae8	0.06825811
59	0xbdd8fd78	-0.1059522
60	0x3e6a3a4e	0.22873804
61	0x3d358044	0.044311777
62	0xbdffd043	-0.12490895
63	0xbe209def	-0.15685247
64	0xbd60bc83	-0.05486728
65	0xbd9fa201	-0.07794572
66	0x3db9c12a	0.09070046
67	0xbdf4daf8	-0.119558275
68	0x3d803f4f	0.06262075
69	0xbe015a4b	-0.126321
70	0xbd89d725	-0.06730489
71	0xbb0c40d5	-0.0021400948
72	0x3dc47363	0.09592321
73	0xbe1b4372	-0.15162447
74	0xbe385c22	-0.18003896
75	0xbe0444d6	-0.12916884
76	0xbd250db2	-0.040296264
77	0xbe0ade0e	-0.1356127
78	0x3d18a0d7	0.037262764
79	0x3d219e25	0.03945746
80	0xbc257d6b	-0.010100703
81	0xbd73adc7	-0.0594919
82	0xbb909d41	-0.0044132774
83	0xbe2299fd	-0.15879054
84	0xbdcab277	-0.09897321
85	0xba883ba9	-0.0010393757
86	0x3e221529	0.15828384
87	0xbd3f612f	-0.04672354
88	0x3dbede68	0.093197644
89	0x3d60c8ca	0.054878987
90	0xbcebc0ea	-0.028778512
91	0xbe36c34d	-0.17847939
92	0x3df28d6d	0.11843381
93	0x3e823760	0.25432873
94	0xbc9dc040	-0.019256711
95	0x3df3f582	0.11912061
96	0x3e329696	0.17440256
97	0x3d4cff95	0.05004843
98	0x3d6fabd6	0.058513485
99	0xbe062d7a	-0.13103285
100	0xbe42c01b	-0.19018595
101	0xbe09f857	-0.1347364
102	0x3d28b317	0.04118642
103	0xbe7d2d85	-0.24724396
104	0xbe0bc94b	-0.13651006
105	0xbd22983b	-0.03969596
106	0xbe28a6df	-0.16469906
107	0xbc46b9c7	-0.012129254
108	0xbca14bff	-0.019689558
109	0xbdfbf6f5	-0.12302963
110	0x3e14b080	0.14520454
111	0xbb5e5e62	-0.0033930768
112	0xbd94e2a7	-0.07269793
113	0x3e2ef7f4	0.17086774
114	0x3e08dca6	0.1336542
115	0xbb16ad0c	-0.0022991328
116	0xbe2ab546	-0.16670713
117	0xbda330ec	-0.079683155
118	0x3d1720b4	0.036896423
119	0x3de1438d	0.109992124
120	0x3d631576	0.05544039
121	0xbc22e7da	-0.009942973
122	0xbe1ae808	-0.15127575
123	0xbe04a5e5	-0.12953909
124	0x3d1340ae	0.035950355
125	0xbcfddceb	-0.030989131
126	0xbdcf4097	-0.101197414
127	0xbdf34958	-0.118792236
128	0x3d4878e8	0.04894343
129	0xbe3a40fc	-0.18188852
130	0xbe1f9d99	-0.15587462
131	0xbdfc82a9	-0.12329609
132	0xbd906a7e	-0.07051562
133	0x3e19d5e5	0.15023
134	0x3d6d9493	0.05800302
135	0xbdee1231	-0.116245635
136	0x3cbf853d	0.023378963
137	0x3dcf68df	0.101274244
138	0x3c1f2243	0.0097127585
139	0xbe0677a6	-0.1313158
140	0xbe0ec723	-0.13943152
141	0xbdddb246	-0.108250186
142	0x3c9f8674	0.019473292
143	0xbe451611	-0.19246699
144	0xbd275962	-0.040856726
145	0xbd2f53e0	-0.0428046
146	0x3e24e631	0.16103436
147	0x3e195d63	0.1497703
148	0x3d9e6b19	0.07735271
149	0x3cbc92e3	0.02301926
150	0xbd674634	-0.056463435
151	0x3d7bb01b	0.061447244
152	0xbe13e3b6	-0.14442334
153	0xba8a1c71	-0.0010537041
154	0xbd1606d8	-0.03662762
155	0xbc9b6e45	-0.018973479
156	0xbda5dd87	-0.080988936
157	0x3bcf0fa1	0.006319002
158	0x3e0096a3	0.12557463
159	0xbdb86558	-0.09003705
160	0x3d119a04	0.03554727
161	0xbd8262a9	-0.06366474
162	0x3c6c12c6	0.014408773
163	0x3cc1075e	0.023563083
164	0x3e046f24	0.12933022
165	0x3c84fa94	0.016232766
166	0xbdd196da	-0.10233851
167	0xbdf58dde	-0.1198995
168	0x3da736af	0.08164727
169	0xbcb5bb89	-0.02218415
170	0x3bfee177	0.0077783423
171	0xbcd69cd2	-0.026197825
172	0xbd8a6141	-0.06756831
173	0xbd85c2b0	-0.06531274
174	0xbd901e19	-0.07036991
175	0xbbcbffc0	-0.006225556
176	0x3d7a730d	0.061144877
177	0x3e19e428	0.15028441
178	0xbd39dccc	-0.045376584
179	0xbbb10d27	-0.005403179
180	0x3df450c1	0.11929465
181	0x3dc276ef	0.09495341
182	0x3d07625f	0.0330528
183	0x3d93777c	0.07200524
184	0xbb66a7d9	-0.003519526
185	0xbd736624	-0.05942358
186	0x3cce73b9	0.025201665
187	0xbcbbae00	-0.022910118
188	0x3e66c0d5	0.22534497
189	0x3e0a40ae	0.13501236
190	0x3c550173	0.013000834
191	0x3e2084d7	0.15675674
192	0xbdaa594e	-0.08317815
193	0x3e42e160	0.19031286
194	0x3dddf34a	0.10837419
195	0xbcae7cd0	-0.02129975
196	0xbdeb93db	-0.115028106
197	0xbd40bed2	-0.04705698
198	0xbd612d7e	-0.054975025
199	0x3b92e198	0.0044824593
200	0xbe0f9505	-0.1402169
201	0x3dd10674	0.10206309
202	0xbda35190	-0.07974541
203	0xbd3b65f1	-0.045751516
204	0xbdb4cf2f	-0.0882858
205	0xbd71b07b	-0.059006196
206	0xbe400423	-0.18751578
207	0xbd1cd3a7	-0.038287785
208	0x3c26c529	0.010178843
209	0x3dc7a038	0.09747356
210	0x3e308286	0.1723729
211	0xbdfcd5bf	-0.12345456
212	0x3d94a1aa	0.072573975
213	0xbde79825	-0.11308316
214	0xbe112764	-0.14175183
215	0xbc961168	-0.018318847
216	0xbdafa70f	-0.08576786
217	0xbe785008	-0.2424928
218	0xbe2f7824	-0.17135674
219	0xbe05a40d	-0.13050862
220	0x3da0be69	0.07848818
221	0x3dba1464	0.090859205
222	0xbd3cae4f	-0.04606467
223	0xbdfa33dd	-0.122169234
224	0xbe33d5dd	-0.17562051
225	0xbdad59a2	-0.08464362
226	0xba8c0870	-0.0010683667
227	0x3d9e65b2	0.077342406
228	0x3da5bf8f	0.080931775
229	0xbd9f3b30	-0.07774961
230	0x3e3a0f5b	0.1816992
231	0xbda43385	-0.08017639
232	0xbe1b0e56	-0.15142187
233	0xbe0a238e	-0.13490126
234	0xbdf08bba	-0.11745401
235	0x3da17c48	0.07885033
236	0x3e85c56d	0.26127186
237	0xbb9e2502	-0.004826189
238	0xbe1449d0	-0.14481282
239	0x3dfb8746	0.12281661
240	0xbe072586	-0.13197908
241	0x3dfebc75	0.12438289
242	0xbd873fd6	-0.066039726
243	0x3d5bb3da	0.053638317
244	0xbd6cf771	-0.057853166
245	0xbe0a73c0	-0.13520718
246	0xbb9e2a46	-0.0048268167
247	0x3d55e78d	0.052222777
248	0x3e36561d	0.17806287
249	0x3d67e59a	0.05661545
250	0x3de13367	0.10996132
251	0xbda3bfac	-0.07995543
252	0xbd81e890	-0.06343186
253	0x3d68ad79	0.05680606
254	0x3c96ebe4	0.018423028
255	0xbe4b28cf	-0.19839786

hidden_layer.6.bias f4 [32]
0	0xbddc0047	-0.107422404
1	0x3d2fa6b9	0.04288361
2	0x3dbf4701	0.09339715
3	0x3dcbe909	0.09956557
4	0xbe6394cf	-0.22224735
5	0x3dd66a68	0.10469514
6	0x3e46cfb2	0.19415167
7	0x3e6096c3	0.21932511
8	0x3e23fa05	0.16013344
9	0xbcfd29f4	-0.030903794
10	0x3e4d47f9	0.20046987
11	0x3e37b232	0.1793907
12	0xbe0734c1	-0.13203718
13	0xbd9c2230	-0.07623708
14	0x3e490b29	0.19633164
15	0x3e48da7e	0.19614598
16	0x3d30f258	0.043199867
17	0x3e283fe0	0.16430616
18	0xbe1c58d9	-0.15268268
19	0xbcd48373	-0.025941586
20	0xbd36b940	-0.044610262
21	0x3ccfe90a	0.025379676
22	0x3dad2c09	0.08455665
23	0xbe3cef50	-0.18450665
24	0xbdd228cc	-0.10261688
25	0xbe02ceca	-0.12774196
26	0xbddec92c	-0.10878214
27	0x3e633912	0.2218974
28	0xbe1a4459	-0.15065135
29	0x3dd5e0c4	0.10443261
30	0xbde4dc5d	-0.111748435
31	0x3d049247	0.032366063

hidden_layer.8.weight f4 [2, 32]
0	0xbc0f3c58	-0.008742414
1	0x3dbf4689	0.093396254
2	0xbd36ffbb	-0.044677477
3	0x3d99554f	0.074869744
4	0x3e0cb5f5	0.13741286
5	0x3dd154ec	0.10221276
6	0xbe5db862	-0.21652368
7	0xbdd270a4	-0.10275391
8	0xbe26227e	-0.16224095
9	0xbc9a5490	-0.01883915
10	0xbdb29fbb	-0.087218724
11	0xbc8f9c46	-0.017530572
12	0x3e342b7e	0.17594716
13	0x3d934fc4	0.071929485
14	0xbe242069	-0.16027988
15	0xbe340416	-0.17579684
16	0x3e062207	0.13098918
17	0xbd3794cf	-0.04481965
18	0x3dab8927	0.08375769
19	0x3e036391	0.1283095
20	0x3cdfc686	0.027316343
21	0x3da0ed0f	0.07857715
22	0xbddd207c	-0.107972115
23	0x3e17a27f	0.14808081
24	0x3df7de7d	0.12102983
25	0xbd1e437d	-0.03863858
26	0x3b81bdcd	0.0039593936
27	0xbdef6455	-0.11689059
28	0x3d8c4413	0.068489216
29	0xbd8628b9	-0.06550736
30	0x3e7c5e40	0.24645329
31	0xbe29273e	-0.16518876
32	0xbdb272ae	-0.0871328
33	0xbe2dc98b	-0.16971414
34	0x3d62601d	0.055267442
35	0xbd3157d5	-0.043296654
36	0xbca16a92	-0.019704137
37	0x3dd59b17	0.10429972
38	0xbe452a1e	-0.19254348
39	0x3dc60c45	0.09670309
40	0xbd44295c	-0.047891006
41	0xbc881a5e	-0.016614135
42	0xbe68eac1	-0.22745802
43	0xbe4a9b0a	-0.19785705
44	0xbe1b8a1e	-0.15189406
45	0x3d4c5673	0.049887132
46	0xbdbea792	-0.09309305
47	0x3bbd2a8c	0.0057728942
48	0xbdd1927b	-0.10233017
49	0xbd4d738d	-0.050159026
50	0x3d6d62f6	0.057955705
51	0x3d55f7a9	0.05223814
52	0xbca55ecc	-0.020186804
53	0x3e193bcc	0.14964217
54	0x3dc6884f	0.096939676
55	0x3e02f68b	0.12789361
56	0x3dfbcf54	0.12295404
57	0x3e185850	0.14877439
58	0xbc12dde8	-0.008964039
59	0xbdc0af1b	-0.09408399
60	0x3df3c1cc	0.11902198
61	0x3dead0ad	0.11465583
62	0xbc46076b	-0.0120867295
63	0x3df0a3fe	0.11750029

hidden_layer.8.bias f4 [2]
0	0xbe2aa08d	-0.16662808
1	0x3d48369f	0.048880216
