PyTorch/models/pirnn.onnx (onnx, 16155 bytes, 9 tensors)

FNN.0.bias f4 [32]
0	0x3d3c4c15	0.045970995
1	0xbd0c569f	-0.034262296
2	0x3d8051bc	0.062655896
3	0x3de10d19	0.10988826
4	0x3d2ef970	0.04271835
5	0x3dcb5efe	0.09930228
6	0xbe7935ee	-0.24336979
7	0x3dfeeebe	0.1244788
8	0xbe3dfbec	-0.18553132
9	0xbe5014cf	-0.20320438
10	0xbd56f391	-0.052478377
11	0x3d3b5e12	0.04574401
12	0x3dc432f5	0.09580032
13	0x3d5be7fe	0.053688042
14	0xbcaa0f2e	-0.020759191
15	0xbd682617	-0.05667695
16	0xbd357b02	-0.044306763
17	0x3c95c683	0.018283134
18	0x3d4c8b5c	0.04993759
19	0x3d9486c3	0.07252266
20	0x3e225201	0.15851595
21	0xbddab639	-0.106792875
22	0xbc99042b	-0.018678745
23	0xbdebceaa	-0.115140274
24	0xbc2e1bab	-0.010626714
25	0xbe4c351d	-0.19942136
26	0xbc83c285	-0.016083965
27	0xbd8402c0	-0.06445837
28	0x3e68c62d	0.22731848
29	0x3e28a866	0.16470489
30	0xbe266055	-0.16247685
31	0xbe6acc84	-0.22929579

FNN.2.bias f4 [32]
0	0xbcb3bda8	-0.021941021
1	0xbe4129c5	-0.1886359
2	0x3df5d7e9	0.12004072
3	0x3dcba9da	0.09944506
4	0x3d43f095	0.04783686
5	0x3e697f4b	0.22802465
6	0xbe840450	-0.2578454
7	0x3e2860f8	0.1644324
8	0xbc42d5c7	-0.011891789
9	0xbe06650c	-0.13124484
10	0xbddbbdb5	-0.10729543
11	0xbd84d5bb	-0.06486078
12	0xbe0928fb	-0.13394539
13	0xba080a5b	-0.00051895314
14	0xbe165c24	-0.14683586
15	0x3e25a6ec	0.16176957
16	0xbe4e93c4	-0.20173556
17	0x3cd59ceb	0.0260758
18	0x3dabd8c3	0.083909534
19	0x3e3f2d55	0.18669637
20	0xbdf78ef3	-0.12087812
21	0x3d280326	0.041018628
22	0x3de1309e	0.10995601
23	0x3e55bb05	0.20872124
24	0x3d0f720b	0.03502087
25	0x3d7d3539	0.061818335
26	0x3c580295	0.013184209
27	0x3cf8669f	0.030322371
28	0x3e1caa73	0.15299396
29	0x3e32e560	0.17470312
30	0x3da4a68a	0.08039577
31	0x3e4331c4	0.19061953

FNN.4.bias f4 [2]
0	0xbd832833	-0.06404152
1	0xbd6fc72e	-0.058539562

onnx::RNN_52 f4 [1, 32, 3]
0	0x3e4bf466	0.1991745
1	0x3e2c410d	0.1682169
2	0xbd122ad4	-0.035685375
3	0x3e4569b0	0.19278598
4	0xbd7df563	-0.062001597
5	0xbbecda8f	-0.0072282027
6	0xbcd9e9eb	-0.026600799
7	0x3e4b4e61	0.19854118
8	0x3d7410b5	0.059586246
9	0xbdfee3cd	-0.12445793
10	0x3e4ff45a	0.20308056
11	0xbcfcba19	-0.030850457
12	0x3d805f30	0.062681556
13	0xbe0be0ad	-0.13659926
14	0xbe4b8bae	-0.19877502
15	0xbcb422a0	-0.021989167
16	0x3e92f517	0.28702614
17	0xbd7955a6	-0.060872696
18	0xbe3f4c3f	-0.1868143
19	0xbdbbed4d	-0.09176121
20	0xbd433542	-0.047658212
21	0xbc8bf83a	-0.017086137
22	0x3e3abffa	0.18237296
23	0x3e2a2c0b	0.16618364
24	0xbe2df475	-0.16987784
25	0xbe3eec83	-0.1864491
26	0xbc1aa6ac	-0.009439152
27	0xbe15fec4	-0.14647967
28	0xbc04e560	-0.008111328
29	0xbdaf804b	-0.08569392
30	0x3e2a60b9	0.1663846
31	0xbb9ca58a	-0.004780476
32	0x3e0b5dc9	0.13609995
33	0x3d26fc41	0.04076791
34	0xbe2f1761	-0.17098762
35	0x3d5dee20	0.05418217
36	0x3d0df7fd	0.03466033
37	0x3e834bf0	0.25643873
38	0xbc84f12b	-0.01622828
39	0xbda9375c	-0.08262512
40	0xbdd74b88	-0.10512453
41	0xbd391c83	-0.045193207
42	0x3da4585b	0.08024665
43	0x3e7e54f6	0.24837098
44	0x3c9fe74e	0.019519474
45	0xbda021c6	-0.07818942
46	0x3e5bd6ca	0.21468654
47	0x3c0eceae	0.008716268
48	0x3bda9165	0.0066701644
49	0xbe8606af	-0.26176974
50	0xbe2772ca	-0.16352382
51	0xbdb970c5	-0.09054712
52	0x3ca7f593	0.020502841
53	0x3e0f8b2d	0.14017935
54	0x3c7c3579	0.015393608
55	0x3bfce24e	0.0077174073
56	0x3ce7448b	0.028230926
57	0xbc38f69b	-0.011289264
58	0x3e0b26fd	0.13589092
59	0xbe32a03d	-0.17443939
60	0xbd09cb9d	-0.033641446
61	0xbe8af83b	-0.2714251
62	0xbc93f480	-0.018060923
63	0xbdef5573	-0.1168622
64	0xbc81c589	-0.015841262
65	0xbd42968a	-0.047506846
66	0x3e13fe8f	0.14452575
67	0xbe6e46d1	-0.23269202
68	0xbdb506d6	-0.088391945
69	0xbe21eca9	-0.15812935
70	0x3e4e53c1	0.20149137
71	0x3c621a6c	0.013800245
72	0x3e7727fc	0.24136347
73	0xbe33f1f0	-0.1757276
74	0xbd0e8f81	-0.034804825
75	0xbe619513	-0.22029524
76	0xbe5ff7f1	-0.21871926
77	0x3d80c02f	0.06286656
78	0x3dbd801e	0.09252952
79	0x3e6bd30e	0.2302973
80	0xbe129d27	-0.14317761
81	0xbe357a89	-0.17722525
82	0x3d471d65	0.048612017
83	0xbd835229	-0.06412155
84	0x3db12f00	0.08651543
85	0xbe81f56f	-0.25382563
86	0xbcb7273c	-0.022357576
87	0xbdbac9ae	-0.091204986
88	0x3cda51c9	0.026650326
89	0xbcca816f	-0.024719922
90	0x3ca5cd46	0.020239484
91	0x3d7489d9	0.059701774
92	0x3d8380f2	0.06421079
93	0x3d729231	0.05922145
94	0xbe300893	-0.17190771
95	0xbd08bde9	-0.033384237

onnx::RNN_53 f4 [1, 32, 32]
0	0x3e4c40c2	0.19946578
1	0xbd05b133	-0.032639693
2	0xbd52e79f	-0.051490422
3	0xbebe254d	-0.37137833
4	0xbda0324b	-0.078220926
5	0x3d60170b	0.054709475
6	0xbdd7514b	-0.10513552
7	0xbe095694	-0.13411933
8	0xbd141ceb	-0.03616039
9	0xbe12247a	-0.14271727
10	0xbd3ea7c3	-0.04654671
11	0xbdaa85e4	-0.08326319
12	0xbe15b71d	-0.14620633
13	0xbe11ebad	-0.1425006
14	0x3e6e4964	0.23270184
15	0x3c2c90af	0.010532542
16	0x3dd8ecf1	0.10592068
17	0xbe373e9c	-0.17894977
18	0xbdba0d61	-0.09084583
19	0xbdd44f98	-0.10366744
20	0x3d253c8a	0.040340938
21	0xbe3f9ef8	-0.18712986
22	0xbd408c50	-0.047008812
23	0xbe1f187e	-0.15536687
24	0x3cfd46ee	0.030917611
25	0xbdfaebbc	-0.12251994
26	0xbc473eb4	-0.012160946
27	0xbe367949	-0.17819704
28	0xbcf2b45c	-0.029627018
29	0xbe133067	-0.14373933
30	0xbcfe1b61	-0.031018915
31	0x3ca72598	0.020403668
32	0x3e266f9a	0.1625351
33	0xbcdb78b8	-0.026790962
34	0x3d90fc4f	0.07079374
35	0xbe3e1e59	-0.18566264
36	0xbe0234a7	-0.12715398
37	0x3df51e44	0.11968663
38	0xbd89916c	-0.0671719
39	0xbd8d2618	-0.068920314
40	0xbe1a71dd	-0.15082498
41	0xbe2d070e	-0.16897222
42	0x3deb73d8	0.11496705
43	0xbd0441d7	-0.032289352
44	0x3d64dfc2	0.055877455
45	0xbe2d6fab	-0.16937129
46	0x3e0319e6	0.12802848
47	0xbe1bae4d	-0.15203209
48	0x3c83d3a0	0.016092122
49	0x3cbcc391	0.023042472
50	0x3dd85512	0.10563101
51	0x3e3656fd	0.17806621
52	0x3e9936d7	0.29924652
53	0xbe02eba5	-0.12785204
54	0x3df303bd	0.118659474
55	0xbdb92b59	-0.09041471
56	0x3cc0af18	0.023520991
57	0xbe24f679	-0.16109647
58	0x3e77a11a	0.24182549
59	0xbe20fcd3	-0.15721445
60	0x3df81c08	0.121147215
61	0x3c06f545	0.008237188
62	0x3d1e7ff1	0.038696233
63	0x3d642286	0.055696987
64	0x3e51c115	0.20483811
65	0x3d436c2b	0.04771058
66	0xbc95067f	-0.018191574
67	0xbe2975db	-0.16548865
68	0x3de59f0d	0.11211977
69	0xbc8d4d4d	-0.017248774
70	0xbcb13961	-0.021633806
71	0x3dec952d	0.115518905
72	0x3cf51a74	0.02991984
73	0xbdd174e6	-0.10227375
74	0xbe20ff4e	-0.15722391
75	0x3c832209	0.01600744
76	0x3db9a18b	0.09064015
77	0x3c6d8037	0.014495901
78	0xbd9f5b0d	-0.077810384
79	0xbdd075c6	-0.101787135
80	0xbdbdc2ee	-0.092656955
81	0xbce8ed23	-0.028433388
82	0x3e3eac7f	0.1862049
83	0xbe0eb958	-0.1393789
84	0x3b299be6	0.0025880276
85	0x3de78f6b	0.11306652
86	0x3dee4895	0.11634938
87	0xbe109864	-0.14120632
88	0x3de9f48c	0.11423597
89	0x3d1a6711	0.037695948
90	0x3dce51d6	0.10074203
91	0x39a4f60c	0.00031463837
92	0xbb693127	-0.0035582276
93	0xbd303f2e	-0.043029003
94	0xbda0f015	-0.07858292
95	0xbd6ee5ab	-0.058324497
96	0x3df83c7e	0.12120913
97	0x3e0d1d31	0.13780667
98	0xbdaa4d15	-0.083154835
99	0xbd94c543	-0.07264187
100	0xbcd62527	-0.026140762
101	0x3d331561	0.04372156
102	0x3d5cf753	0.053946804
103	0x3ce7f116	0.0283132
104	0xbe364843	-0.17801003
105	0xbd5a7d98	-0.05334243
106	0x3e0b8c35	0.13627703
107	0x3c8ac0d6	0.016937654
108	0x3c17febc	0.009277042
109	0xbcc99382	-0.02460647
110	0xbe1a0aac	-0.15043133
111	0xbdfb7a2a	-0.1227916
112	0x3d2fa11e	0.042878263
113	0x3c2a9deb	0.010413627
114	0x3de85411	0.113441594
115	0x3db20695	0.08692662
116	0xbe19b666	-0.15010986
117	0xbdb1fd9d	-0.08690951
118	0xbdde92cd	-0.10867844
119	0x3e4413f0	0.1914823
120	0xbc6ad256	-0.014332375
121	0xbd9db57d	-0.07700632
122	0x3d35ccee	0.04438489
123	0x3cae9922	0.021313254
124	0xbe204c31	-0.15654065
125	0x3da880c4	0.08227685
126	0xbd371b86	-0.044703983
127	0x3d582e03	0.052778255
128	0xbe36efa1	-0.17864849
129	0x3e12e9a9	0.14346947
130	0x3d8a3429	0.0674823
131	0xbd44f024	-0.04808058
132	0xbe366e88	-0.17815602
133	0xbe765a90	-0.24057984
134	0xbdc36f44	-0.095427066
135	0x3dbf4e32	0.093410864
136	0x3dc04e84	0.09389976
137	0x3e14f817	0.14547764
138	0x3e0235cf	0.12715839
139	0xbc642acb	-0.013926218
140	0xbd091be3	-0.03347386
141	0xbe2fe3f6	-0.17176804
142	0xbe63cece	-0.22246858
143	0xbe7b6e9c	-0.24553913
144	0x3deb4c52	0.11489166
145	0xbdf44c19	-0.11928577
146	0xbd077fbe	-0.03308081
147	0xbd132dc4	-0.035932317
148	0x3ddd5137	0.10806506
149	0xbe470ec2	-0.19439223
150	0xbc80832f	-0.015687553
151	0xbe24b1d8	-0.16083467
152	0x3cc8c38a	0.024507303
153	0x3deac70c	0.114637464
154	0xbdc050cc	-0.09390411
155	0xbda5d913	-0.08098044
156	0xbd20ae6e	-0.03922885
157	0xbea68898	-0.32526088
158	0xbd110d32	-0.035412975
159	0xbdaa47d7	-0.083144836
160	0x3da65bc1	0.081229694
161	0xbe1bac84	-0.15202528
162	0x3dbb83ea	0.0915602
163	0x3e499c50	0.19688535
164	0x3e0b5c53	0.13609438
165	0xbe16a62c	-0.14711827
166	0x3dff1fc7	0.12457233
167	0xbd629f70	-0.055327833
168	0x3db28049	0.08715875
169	0x3e405e8d	0.18786068
170	0xbd872079	-0.065979905
171	0x3d019eb1	0.03164548
172	0xbd70ea41	-0.058817152
173	0xbe1fd84c	-0.15609854
174	0x3db8b700	0.090192795
175	0xbe2eeedc	-0.17083305
176	0x3da7e7f6	0.0819854
177	0x3e216dd2	0.1576455
178	0x3e1c244f	0.15248226
179	0xbdf0a101	-0.11749459
180	0xbe792a6c	-0.24332589
181	0x3cdef1ca	0.027214903
182	0x3d97c908	0.074113905
183	0xbe12a888	-0.14322102
184	0xbdb52567	-0.088450246
185	0xbdb79c7f	-0.08965396
186	0xbd1aa08f	-0.037750777
187	0xbda1875d	-0.078871466
188	0xbdf29aea	-0.11845954
189	0xbbfa6b8b	-0.0076422147
190	0xbe476cdb	-0.19475119
191	0x3b68f22d	0.0035544739
192	0x3e1ae985	0.15128143
193	0xbba7ba95	-0.005118678
194	0x3d694f19	0.0569602
195	0xbe35ade0	-0.1774211
196	0xbe2dcea7	-0.16973363
197	0xbdce957f	-0.10087108
198	0xbd8c358d	-0.068461515
199	0xbde53918	-0.111925304
200	0xbe0b2a77	-0.13590418
201	0xbd0f02fc	-0.034914955
202	0x3cb19f80	0.0216825
203	0xbdc3b81e	-0.09556602
204	0x3d09c890	0.033638537
205	0xbd5bba3f	-0.053644415
206	0xbcd47226	-0.025933336
207	0xbd8d9df0	-0.0691489
208	0xbe0f694e	-0.14005014
209	0x3e231710	0.15926766
210	0xbd8b39b9	-0.06798119
211	0x3dae2a56	0.08504169
212	0x3d163900	0.036675453
213	0x3c05e91f	0.008173256
214	0x3dbda834	0.09260598
215	0x3d5e0e91	0.05421311
216	0xbe1988a1	-0.14993526
217	0x3d9af4f7	0.075662546
218	0x3e3486e7	0.17629586
219	0x3c63d191	0.013904945
220	0x3e5d2770	0.21597075
221	0x3df06803	0.11738589
222	0x3c76e6f3	0.015069711
223	0x3e03bb6d	0.12864466
224	0xbde5f378	-0.112280786
225	0xbdcbe67c	-0.09956071
226	0x3e8165ee	0.2527308
227	0x3e8a110c	0.2696613
228	0xbda732b5	-0.081639685
229	0x3e8e4ded	0.27793828
230	0xbe60cec8	-0.21953881
231	0xbded4a26	-0.11586408
232	0xbe0ecc0e	-0.13945028
233	0x36f5ece8	7.3291485e-06
234	0x3e384a51	0.179971
235	0x3cbe45e1	0.02322668
236	0xbd9b790c	-0.07591447
237	0xbe64fcbf	-0.2236204
238	0x3e4659cc	0.19370192
239	0x3d9138e0	0.07090926
240	0xbe5abfd1	-0.21362235
241	0x3ded292d	0.11580119
242	0xbddf52bf	-0.109044544
243	0x3d9a8d8b	0.075465284
244	0xbd5a253e	-0.053258173
245	0xbdae1e3d	-0.08501861
246	0xbe2a192c	-0.16611165
247	0xbcf1e3ab	-0.029527506
248	0xbe85b7e7	-0.2611687
249	0xbdf4204b	-0.11920222
250	0x3f250ec6	0.6447567
251	0xbd880e1d	-0.06643317
252	0xbe4b920c	-0.19879931
253	0x3e22cb68	0.15897906
254	0x3cd732f7	0.02626942
255	0xbe15609f	-0.1458764

onnx::RNN_54 f4 [1, 64]
0	0xbda487a4	-0.08033684
1	0xbe0b5fd4	-0.13610774
2	0x3d217853	0.03942139
3	0xbe2c7967	-0.16843186
4	0x3e43aa56	0.19107947
5	0xbe264086	-0.16235551
6	0x3d0cdda8	0.034391075
7	0x3e50d1dc	0.20392555
8	0x3d4ffbf2	0.050777383
9	0x3d7aedd8	0.06126198
10	0xbd638668	-0.0555481
11	0x3dd9b9b3	0.106311224
12	0x3c3a957c	0.011388179
13	0xbe3c184f	-0.18368648
14	0x3e82c494	0.25540602
15	0xbdbd1cb3	-0.092339896
16	0x3d517e66	0.051145934
17	0x3e28a7a3	0.16470198
18	0xbdbfc70a	-0.093641356
19	0xbddf4684	-0.10902122
20	0x3d9ecb7c	0.07753655
21	0xbd7402cd	-0.059572984
22	0x3d133bcd	0.035945702
23	0xbe6cc346	-0.23121366
24	0x3b1e6a73	0.0024172335
25	0xbda3e0ac	-0.08001837
26	0xbd9fc994	-0.0780212
27	0xbe447717	-0.19186054
28	0x3df9d77b	0.12199303
29	0xbd35dcf2	-0.044400163
30	0xbd172147	-0.03689697
31	0x3e3e44f6	0.18580994
32	0x3d81ba98	0.06334418
33	0x3d28879f	0.041144963
34	0xbd91765b	-0.07102653
35	0xbd1be971	-0.038064424
36	0x3e5d4078	0.21606624
37	0x3e03dc8b	0.12877099
38	0xbe3aaad2	-0.18229225
39	0x3e4198ea	0.18905988
40	0xbcc50f40	-0.024055123
41	0x3db0250d	0.08600817
42	0x3e80f08a	0.25183517
43	0x3db21fc6	0.086974666
44	0xbdc4f8da	-0.09617777
45	0x3e0b9027	0.13629209
46	0xbd206812	-0.03916175
47	0xbbea5b51	-0.007151999
48	0xbd753d49	-0.0598729
49	0xbd12da51	-0.035852734
50	0x3caaf1d7	0.020867271
51	0xbba73221	-0.0051024114
52	0x3caae8f7	0.02086304
53	0xbcb3f6ce	-0.021968272
54	0x3e2dac0d	0.16960163
55	0x3ca1dda0	0.019759
56	0x3dc4ac31	0.096031554
57	0x3d8e0c31	0.06935919
58	0x3e153d32	0.14574125
59	0xbd1c492a	-0.038155712
60	0x3d2d55fa	0.04231832
61	0xbd2c5572	-0.042073674
62	0xbd2a7420	-0.04161465
63	0xbdc666b9	-0.096875615

onnx::MatMul_56 f4 [32, 32]
0	0x3d3b2bb2	0.045695968
1	0x3dd8d489	0.10587413
2	0xbe1815b0	-0.14852023
3	0xbe2b062f	-0.16701578
4	0x3cd7db68	0.026349738
5	0x3d8484ca	0.0647064
6	0x3e850069	0.25976875
7	0xbe0e9804	-0.13925177
8	0xbcffd16f	-0.031227795
9	0x3ca271af	0.0198296
10	0x3dbfe5f8	0.09370035
11	0x3d832c65	0.06404952
12	0xbd7d7d24	-0.06188692
13	0xbdc88626	-0.09791212
14	0xbd1ab79f	-0.03777277
15	0xbdccbde8	-0.09997159
16	0xbbb7c417	-0.0056080925
17	0xbc912273	-0.017716622
18	0xbe1499c7	-0.14511786
19	0xbdde50c2	-0.10855247
20	0x3db76c02	0.08956148
21	0xbe296a9a	-0.16544572
22	0x3e16e5e7	0.14736138
23	0xbe25c8d3	-0.1618989
24	0xbdd78704	-0.10523799
25	0x3db6b673	0.08921518
26	0x3e7bb21a	0.24579659
27	0x3c917228	0.01775463
28	0xbe4b0415	-0.19825776
29	0xbd0bd2ec	-0.034136698
30	0x3dfef370	0.12448776
31	0x3dfd1530	0.12357557
32	0xbd682b48	-0.0566819
33	0xbc2ab65d	-0.010419455
34	0xbd1d3884	-0.038383976
35	0xbdc938b7	-0.098252706
36	0xbdb56e68	-0.08858949
37	0xbd600ed3	-0.054701637
38	0x3dc034c3	0.093850635
39	0xbcf559d6	-0.029950064
40	0x3d86e239	0.06586117
41	0x3e243df0	0.16039252
42	0xbe1a7ea1	-0.15087368
43	0xbca22619	-0.019793557
44	0xbc63b403	-0.013897899
45	0x3e054e73	0.13018207
46	0x3d6fe555	0.058568317
47	0x3d42f3e6	0.04759588
48	0x3d2b0c55	0.041759808
49	0xbe14efed	-0.1454465
50	0xbe170c03	-0.14750676
51	0x3e5feefa	0.21868506
52	0xbda694d3	-0.08133855
53	0xbe4150a1	-0.18878414
54	0xbcef78c2	-0.029232386
55	0xbe28c7c9	-0.16482462
56	0xbd9a01e7	-0.07519894
57	0xbbf68dda	-0.0075242342
58	0xbc7acbfc	-0.015307423
59	0xbcb779c5	-0.022396931
60	0x3d60ebca	0.054912366
61	0x3d1c718b	0.03819422
62	0x3e507eac	0.20360821
63	0x3dceed66	0.10103874
64	0xbd8e548b	-0.06949719
65	0x3d258620	0.040411115
66	0x3bce420d	0.006294495
67	0x3d24007b	0.04003952
68	0x3e37ef99	0.17962493
69	0xbdb65ffb	-0.089050256
70	0x3daea84d	0.085281946
71	0xbc6d505d	-0.014484492
72	0xbccd6c56	-0.025076073
73	0xbe3ad561	-0.1824546
74	0x3d130df6	0.035901986
75	0xbde3c3b9	-0.111213155
76	0xbd8e56bf	-0.06950139
77	0xbd57b858	-0.05266604
78	0xbdf610e3	-0.1201494
79	0xbe47a377	-0.1949595
80	0xbd69f5b7	-0.057119098
81	0xbe0494ed	-0.12947436
82	0xbdb37429	-0.0876239
83	0xbd85b721	-0.0652907
84	0x3e2f306f	0.1710832
85	0xbe6ca063	-0.23108058
86	0x3e13163a	0.14363948
87	0x3aaef469	0.0013347986
88	0xbd8f9dc1	-0.07012511
89	0xbe3f4648	-0.18679154
90	0xbcafb0c2	-0.02144659
91	0x3d4ac83a	0.049507357
92	0xbd72eafe	-0.059306137
93	0x3e2e59e4	0.17026478
94	0x3ca16075	0.019699315
95	0xbde6cd49	-0.11269624
96	0xbd88e378	-0.06684011
97	0xbe088ec2	-0.13335708
98	0xbe2ead1c	-0.17058223
99	0xbd992cca	-0.07479246
100	0xbd4a7e4f	-0.049436864
101	0x3df74300	0.12073326
102	0x3e14b146	0.1452075
103	0x3d51fcdd	0.05126654
104	0xbdbd8b77	-0.092551164
105	0x3d638569	0.05554715
106	0x3c6374a5	0.013882791
107	0xbc9c70b0	-0.019096702
108	0xbd97a254	-0.074040085
109	0x3d60d228	0.05488792
110	0xbe0a3ac8	-0.13498986
111	0x3e0faafc	0.14030069
112	0xbdd55a06	-0.10417561
113	0x3dfff04d	0.124970056
114	0x3c51d799	0.01280775
115	0xbd8b1c74	-0.067925364
116	0xbddeecfe	-0.108850464
117	0x3c997897	0.01873426
118	0x3e2f7dbf	0.17137812
119	0x3be25baf	0.006907902
120	0x3d9830a2	0.07431151
121	0xbd7a800b	-0.061157268
122	0x3de72fc8	0.112884104
123	0x3db0eece	0.086392984
124	0xbda9ad07	-0.082849555
125	0x3da0e029	0.07855255
126	0xbe397c67	-0.18113862
127	0x3dca92ad	0.098912574
128	0x3b54ba46	0.003245966
129	0xbe196c04	-0.14982611
130	0x3cc7adde	0.024374899
131	0xbdb4fabd	-0.08836887
132	0x3c0ea9c4	0.0087074675
133	0xbe581406	-0.21101388
134	0x3d6be0a0	0.057587266
135	0x3cc5b1f3	0.024132704
136	0xbe4a75f6	-0.19771561
137	0xbd4864ff	-0.048924442
138	0x3c3a8dca	0.011386344
139	0xbdf9c92f	-0.12196576
140	0xbdd3e0da	-0.103456214
141	0x3d672df8	0.056440324
142	0xbdee5ca2	-0.11638762
143	0xbd8f365c	-0.0699279
144	0xbd6c3f0b	-0.05767731
145	0x3d18b10d	0.037278224
146	0xbde1e0e8	-0.110292256
147	0xbddcfab3	-0.107900046
148	0xbcc762b8	-0.024339065
149	0x3d885a92	0.066579
150	0xbdfbee34	-0.12301293
151	0xbe158ebe	-0.14605233
152	0xbe475c40	-0.19468784
153	0xbd8b87bd	-0.068129994
154	0xbd367c05	-0.044551868
155	0x3e034d13	0.1282237
156	0x3d2937a0	0.041312814
157	0x3df4ef02	0.119596496
158	0x3dd23a3b	0.10265013
159	0xbdacfe06	-0.084468886
160	0x3e02550d	0.12727757
161	0x3c21f9ab	0.009886186
162	0xbd0c79ae	-0.03429573
163	0x3e250254	0.1611417
164	0x3d6d4482	0.057926662
165	0xbd341446	-0.043964647
166	0xbe68eed6	-0.22747359
167	0xbd9cd59e	-0.07657932
168	0xbe120d84	-0.14262968
169	0x3d4f070d	0.050543834
170	0x3d350c67	0.04420128
171	0x3e13fd52	0.14452103
172	0xbe38f353	-0.18061571
173	0x3e2d068f	0.16897033
174	0x3bece3cb	0.0072293035
175	0xbc26651f	-0.010155945
176	0x3dd171d5	0.1022679
177	0xbd85f4a8	-0.06540805
178	0xbc7639d7	-0.0150284385
179	0xbe34b866	-0.17648467
180	0x3e362900	0.17789078
181	0xbe4c156e	-0.1993005
182	0x3bbeb71d	0.0058201686
183	0xbddd77bf	-0.108138554
184	0x3cefd7aa	0.029277641
185	0xbcf3585d	-0.02970522
186	0x3a849ab1	0.0010116902
187	0xbde17a54	-0.1100966
188	0x3e163bed	0.14671297
189	0x3e11bc73	0.14232044
190	0xba246b1d	-0.00062720646
191	0xbd1b6f4c	-0.037947938
192	0xbdbd8bff	-0.09255218
193	0x3d96eb20	0.07369065
194	0x3c856868	0.016285136
195	0x3df2c513	0.11853995
196	0xbdb8729b	-0.09006234
197	0xbca9331b	-0.020654252
198	0x3e118ace	0.14213106
199	0xbda16cd7	-0.07882088
200	0x3d8b7c13	0.06810775
201	0x3cd887a4	0.026431866
202	0xbdabed98	-0.08394927
203	0x3ce4e76e	0.027942386
204	0x3d9ebb42	0.0775056
205	0xbdc346eb	-0.09535011
206	0x3db371e4	0.08761957
207	0xbe0de37b	-0.13856308
208	0x3e41b07c	0.1891498
209	0x3d926603	0.071483634
210	0x3d74cafc	0.059763893
211	0x3e040d89	0.12895788
212	0x3d6dc944	0.05805327
213	0x3e041230	0.12897563
214	0xbd1c5648	-0.03816822
215	0x3dbc616b	0.091982685
216	0x3de596cd	0.112104036
217	0xbcb0fa78	-0.021603808
218	0x3d96eaab	0.07368978
219	0xbd8a0a73	-0.06740274
220	0xbd8147c1	-0.06312514
221	0x3d84cdcc	0.06484565
222	0x3c703238	0.014660411
223	0xbd99a878	-0.07502836
224	0x3dedf67b	0.11619278
225	0xbde45e21	-0.11150766
226	0x3e5714d9	0.21004046
227	0xbdff8d5e	-0.124781355
228	0x3d7bb43a	0.061451174
229	0xbe04be75	-0.12963279
230	0xbe60d0aa	-0.21954599
231	0x3c9ac632	0.018893335
232	0x3d11cbd3	0.035594773
233	0xbdbdea5a	-0.09273215
234	0x3dfe4196	0.12414853
235	0x3def37a9	0.11680538
236	0xbd9fcf47	-0.07803207
237	0x3df7c1c2	0.12097503
238	0x3d817185	0.0632048
239	0xbca32ac4	-0.019917853
240	0xbd502fdf	-0.050826903
241	0x3d3a3278	0.045458287
242	0x3e37efb8	0.17962539
243	0xbdc90c4f	-0.09816801
244	0x3cac974a	0.021068234
245	0x3e239dbc	0.1597814
246	0xbdd30a74	-0.10304728
247	0xbddbb73b	-0.10728308
248	0x3d391c4b	0.045192998
249	0x3d332584	0.04373695
250	0xbe416367	-0.18885575
251	0x3d9e67fd	0.07734678
252	0xbda8a8e3	-0.082353376
253	0x3d88ddd1	0.06682933
254	0xbe2c8f5e	-0.16851565
255	0xbe4d9728	-0.20077193

onnx::MatMul_57 f4 [32, 32]
0	0x3dbc3faa	0.091918305
1	0x3db99f8a	0.09063633
2	0x3db75aa5	0.08952836
3	0x3c56f6fc	0.013120409
4	0xbdbeb2c7	-0.09311443
5	0xbe299b87	-0.16563235
6	0xbe662602	-0.22475436
7	0x3d9fa659	0.077954
8	0x3e22ee11	0.15911128
9	0x3dbb0572	0.09131898
10	0xbd6ccb98	-0.05781135
11	0x3e3fe5c1	0.18739988
12	0xbcf9eb37	-0.030507667
13	0xbcbaafa2	-0.022788826
14	0xbdd28b53	-0.1028048
15	0x3ce2636a	0.027635295
16	0x3de8d337	0.11368411
17	0x3cc7b9eb	0.024380645
18	0x3db69dfd	0.089168526
19	0xbd4ac179	-0.049500916
20	0xbded8ff9	-0.11599726
21	0xbde563b9	-0.11200661
22	0x3e3ad5d5	0.18245633
23	0x3b8c5078	0.0042820536
24	0xbdc75240	-0.09732485
25	0xbdfdbcbd	-0.123895146
26	0xbd390227	-0.04516807
27	0x3e3fcdf8	0.18730915
28	0x3d9032a9	0.07040913
29	0x3df8be74	0.12145701
30	0xbd8ad73f	-0.06779336
31	0x3b81f1f6	0.0039656116
32	0xbdd43af6	-0.103628084
33	0x3dd9dc18	0.10637683
34	0xbe2eeb11	-0.17081858
35	0xbcaff87d	-0.021480793
36	0x3deed12c	0.1166099
37	0xbdd12e4a	-0.10213907
38	0x3e4e13a7	0.20124684
39	0xbe09e1da	-0.13465062
40	0x3bb1efe0	0.0054302067
41	0x3e692e73	0.22771625
42	0x3e000082	0.12500194
43	0x3d501200	0.050798416
44	0x3e0199a1	0.12656261
45	0xbd8338d2	-0.06407322
46	0x3d6898eb	0.05678646
47	0x3e1e58db	0.15463583
48	0x3e28804d	0.16455193
49	0x3d699592	0.057027407
50	0xbda1241d	-0.07868216
51	0x3e0e3eb0	0.13891101
52	0xbd9c1062	-0.07620312
53	0xbd4b84e1	-0.04968727
54	0x3d2ef866	0.04271736
55	0xbd8a1c64	-0.06743696
56	0xbdc2cb3f	-0.09511422
57	0xbcdedf30	-0.027206033
58	0x3ca5b908	0.020229831
59	0x3d4a1cc3	0.049343836
60	0xbd89a813	-0.06721511
61	0xbdcfba92	-0.10143007
62	0x3c9576d2	0.018245135
63	0x3dc0d744	0.09416059
64	0x3c3cb6bc	0.011518177
65	0x3dceb034	0.10092202
66	0xbe4a705b	-0.19769423
67	0x3dbacf91	0.091216214
68	0x3e5e56fa	0.21712866
69	0xbcc2cdcb	-0.02377977
70	0xbdc3e0a7	-0.095643334
71	0x3e224e9f	0.15850304
72	0x3dd03bc1	0.10167647
73	0x3d80e26b	0.06293186
74	0x3e610f27	0.21978436
75	0x3d2a4e61	0.041578654
76	0xbd210e6b	-0.03932039
77	0xbdacc40f	-0.08435833
78	0x3db2281e	0.08699058
79	0x3e71a341	0.23597433
80	0x3dc7f362	0.097632185
81	0xbe412399	-0.18861236
82	0xbd18de55	-0.037321407
83	0xbdcf6aad	-0.10127769
84	0xbe0aa688	-0.13540089
85	0x3b1f0e52	0.002427001
86	0xbd632476	-0.055454694
87	0x3e0885ec	0.13332337
88	0xbe660a8f	-0.22464965
89	0xbe215fae	-0.15759155
90	0x3d283cb9	0.041073535
91	0xbdf184d6	-0.117929146
92	0x3db870ba	0.09005876
93	0x3e4b4773	0.19851474
94	0x3d906e9d	0.07052348
95	0x3d6d6cb6	0.057965003
96	0xbd95bf46	-0.07311873
97	0xbe530b53	-0.20609789
98	0xbdf347f2	-0.11878957
99	0x3d33aea4	0.043867722
100	0x3d5c64be	0.053807013
101	0x3e0b4685	0.1360112
102	0x3d8cff57	0.0688464
103	0xbcda2d0c	-0.026632808
104	0x3d394e59	0.045240734
105	0xbe229a28	-0.15879118
106	0x3d66eede	0.056380145
107	0x3d4fd396	0.050738893
108	0x3d8b4381	0.06799985
109	0xbdf24b77	-0.118308
110	0x3e019e72	0.12658098
111	0xbd5197c4	-0.051170126
112	0xbe054460	-0.13014364
113	0x3e2477f9	0.16061391
114	0x3e1c3f39	0.15258493
115	0x3d36b9c6	0.04461076
116	0xbe322857	-0.17398201
117	0x3d7d8dc7	0.061902788
118	0x3e11bca2	0.14232114
119	0x3e01ceae	0.12676498
120	0x3d4b2bde	0.049602382
121	0x3d71412f	0.058900055
122	0xbe16c52e	-0.14723656
123	0x3e52b8f4	0.20578367
124	0x3d2a12a3	0.04152168
125	0x3e26e3c1	0.16297819
126	0x3e574a5d	0.21024461
127	0x3e5c38b7	0.2150601
128	0x3df10ed6	0.11770408
129	0xbe3fe4c9	-0.18739618
130	0xbae25dfa	-0.0017270439
131	0x3d94225d	0.07233117
132	0xbe1c50f0	-0.1526525
133	0x3bc806e0	0.006104335
134	0xbd5f2c40	-0.05448556
135	0x3e20b55e	0.15694186
136	0x3e50d26b	0.20392768
137	0xbdc2c505	-0.09510235
138	0xbe41e17c	-0.18933672
139	0x3e3daf25	0.18523844
140	0x3d60088a	0.054695643
141	0xbd87e1a7	-0.06634837
142	0x3d90c28e	0.07068358
143	0xbdacfce9	-0.08446676
144	0x3dde79f5	0.10863105
145	0xbd436955	-0.047707874
146	0x3c1ba8d7	0.009500704
147	0xbe373f7b	-0.1789531
148	0xbe092111	-0.1339152
149	0xbe259aeb	-0.16172378
150	0x3da2f9d3	0.079578064
151	0x3e111707	0.1416894
152	0x3d95d70d	0.07316408
153	0xbdb2cd1a	-0.08730526
154	0xbdd87d05	-0.105707206
155	0x3d12a4f2	0.035801835
156	0xbe21e221	-0.15808918
157	0x3e080291	0.13282229
158	0xbdfc4a42	-0.12318851
159	0x3db65f14	0.089048535
160	0xbdb55a97	-0.08855169
161	0xbe3ad915	-0.18246873
162	0x3e41b5f3	0.18917064
163	0x3d88742e	0.066627845
164	0x3d02074a	0.031745233
165	0xbc5d00d6	-0.013488969
166	0xbd28a465	-0.041172404
167	0xbd6db364	-0.05803241
168	0xbc80a3a1	-0.015703024
169	0xbe13f26a	-0.14447942
170	0x3d8f594b	0.06999453
171	0x3dc9d67f	0.09855365
172	0xbdb61ea7	-0.08892565
173	0xbdd935ac	-0.1060594
174	0xbe14baa9	-0.1452433
175	0xbd81a911	-0.06331075
176	0xbd551f17	-0.052031603
177	0xbce0afd0	-0.027427584
178	0xbd83eac5	-0.06441263
179	0x3c5a7781	0.013334156
180	0x3e025eae	0.1273143
181	0x3d98ec70	0.07466972
182	0x3e26b0b2	0.16278341
183	0x3e257a2e	0.16159889
184	0x3e06d119	0.13165702
185	0x3ddcbb00	0.10777855
186	0x3dfe777b	0.12425133
187	0xbd276cef	-0.04087537
188	0xbd5782ce	-0.05261498
189	0xbdd9648d	-0.10614882
190	0x3e789110	0.24274087
191	0x3e5dcf5d	0.21661134
192	0xbe19f2c8	-0.1503402
193	0x3de4a569	0.11164362
194	0x3cdc3d3d	0.02688467
195	0xbe28d2b8	-0.16486633
196	0xbdffdae8	-0.12492925
197	0x3d9591d1	0.07303203
198	0x3e7c0d91	0.2461455
199	0xbe083f52	-0.13305405
200	0xbe1a605f	-0.15075825
201	0x3e47f9f3	0.19528942
202	0xbd3e6106	-0.046479248
203	0x3dbea117	0.09308069
204	0x3da38aea	0.0798548
205	0xbd67bb99	-0.05657539
206	0x3e687df7	0.22704302
207	0x3c456533	0.012048054
208	0x3e44a643	0.19204049
209	0xbe17d9e9	-0.1482922
210	0x3c99720b	0.018731138
211	0x3d28102e	0.041031055
212	0x3da4aeca	0.08041151
213	0x3dc9d67d	0.098553635
214	0x3decf3ba	0.11569925
215	0xbd68d0e4	-0.05683984
216	0x3dda5ced	0.106622554
217	0x3e2b9cd7	0.16759048
218	0xbd89cc2c	-0.06728396
219	0xbe0a25de	-0.13491008
220	0xbe63e26f	-0.22254346
221	0xbd56099b	-0.052255254
222	0x3d883e61	0.06652523
223	0xbe7c0904	-0.24612814
224	0xbd8ec6dd	-0.06971524
225	0xbe40729a	-0.18793717
226	0xbcefbea0	-0.029265702
227	0x3d4cd944	0.05001189
228	0x3dafbcbb	0.08580919
229	0xbd05b5d1	-0.032644097
230	0xbe000e98	-0.12505567
231	0xbde32496	-0.110909626
232	0xbd1a3a82	-0.037653454
233	0x3cf883b0	0.030336231
234	0x3e8fcd13	0.28086147
235	0xbcdc8bde	-0.026922163
236	0x3daa51a6	0.083163545
237	0xbe65cfbf	-0.2244253
238	0xbd98cddb	-0.07461139
239	0xbd8029f4	-0.06258002
240	0xbdb2c9e2	-0.08729912
241	0xbd919db7	-0.0711016
242	0x3e22923d	0.15876098
243	0x3e1ede3a	0.1551446
244	0xbe315d7f	-0.17320822
245	0x3d5c0e84	0.05372478
246	0xbde5a4f2	-0.112131014
247	0x3e0d88db	0.13821737
248	0xbe8e57b7	-0.27801296
249	0xbdaf3de2	-0.08556725
250	0x3cb8af3d	0.022544498
251	0x3bd52974	0.0065051857
252	0xbd137941	-0.03600431
253	0x3c1b1b88	0.009467013
254	0x3e4ca381	0.19984247
255	0x3c502b67	0.01270566

onnx::MatMul_58 f4 [32, 2]
0	0xba7e73ee	-0.0009706606
1	0x3e124b77	0.142866
2	0x3de34e4d	0.11098919
3	0xbe760f86	-0.24029359
4	0x3d62273d	0.0552132
5	0x3e5a205c	0.21301407
6	0xbe1e20d0	-0.15442204
7	0xbde810ae	-0.113313064
8	0xbe0a0059	-0.13476695
9	0xbc83dbfd	-0.01609611
10	0xbe7a85eb	-0.24465148
11	0xbcabc6a1	-0.020968737
12	0x3dcf1376	0.10111134
13	0xbe22d67f	-0.15902136
14	0xbe1724be	-0.1476011
15	0x3dbdb18d	0.09262381
16	0xbd00672a	-0.031348385
17	0x3df463e7	0.11933117
18	0x3cc882dd	0.024476463
19	0xbe28cc05	-0.16484077
20	0xbc9024db	-0.017595699
21	0xbe4f2434	-0.20228654
22	0x3d879cb3	0.06621685
23	0x3dca66e2	0.098829046
24	0x3d0637da	0.032768108
25	0xbe5ea390	-0.21742082
26	0xbc6d0745	-0.014467065
27	0x3e1c7111	0.15277506
28	0x3e3fb810	0.18722558
29	0x3d69ed3d	0.057111014
30	0xbd524461	-0.051334742
31	0xbe229a00	-0.15879059
32	0x3e1daf87	0.1539899
33	0xbe1eb04d	-0.15496941
34	0xbc1a9bc5	-0.009436552
35	0x3df94c84	0.12172797
36	0xbe02355e	-0.1271567
37	0xbdccee09	-0.10006339
38	0xbe23e3b8	-0.16004837
39	0xbe23f91a	-0.16012993
40	0x3d46cafa	0.048533417
41	0xbe2abdfc	-0.16674036
42	0xbd46808b	-0.048462432
43	0xbd62e449	-0.05539349
44	0xbd55c0b3	-0.052185725
45	0x3eb83588	0.3597834
46	0xbe1a0438	-0.15040672
47	0x3da87db9	0.08227105
48	0x3beee625	0.007290619
49	0x3e46d1c5	0.19415958
50	0xbc3c3822	-0.0114879925
51	0x3dc561fa	0.09637828
52	0xbdef9b5d	-0.11699555
53	0xbe475e53	-0.19469576
54	0x3c8f08c6	0.017460238
55	0x3dfb600e	0.1227418
56	0xbdd32d2e	-0.10311352
57	0x3cb2c373	0.021821713
58	0xbdec4782	-0.115370765
59	0xbd457121	-0.04820359
60	0xbdab1746	-0.083540484
61	0x3dc5da25	0.096607484
62	0xbe5916f2	-0.21200159
63	0xbd0de77b	-0.034644585
